training parameters

train file: ../data/horoscopo_1500_1000_train.txt
validation file: ../data/horoscopo_1500_1000_val.txt
voc_file: ../data/horoscopo_1500_1000_voc.txt
batch size: 128
epochs: 20
ptj: 3
trainable embedding: True

model specs: 

backend: theano
class_name: Sequential
config:
- class_name: Embedding
  config:
    activity_regularizer: null
    batch_input_shape: !!python/tuple [null, 125]
    dtype: int32
    embeddings_constraint: null
    embeddings_initializer:
      class_name: RandomUniform
      config: {maxval: 0.05, minval: -0.05, seed: null}
    embeddings_regularizer: null
    input_dim: 2509
    input_length: 125
    mask_zero: true
    name: embedding_1
    output_dim: 300
    trainable: true
- class_name: LSTM
  config:
    activation: tanh
    activity_regularizer: null
    bias_constraint: null
    bias_initializer:
      class_name: Zeros
      config: {}
    bias_regularizer: null
    dropout: 0.0
    go_backwards: false
    implementation: 2
    kernel_constraint: null
    kernel_initializer:
      class_name: VarianceScaling
      config: {distribution: uniform, mode: fan_avg, scale: 1.0, seed: null}
    kernel_regularizer: null
    name: lstm_1
    recurrent_activation: hard_sigmoid
    recurrent_constraint: null
    recurrent_dropout: 0.3
    recurrent_initializer:
      class_name: Orthogonal
      config: {gain: 1.0, seed: null}
    recurrent_regularizer: null
    return_sequences: true
    return_state: false
    stateful: false
    trainable: true
    unit_forget_bias: true
    units: 512
    unroll: false
    use_bias: true
- class_name: Dropout
  config: {name: dropout_1, rate: 0.3, trainable: true}
- class_name: LSTM
  config:
    activation: tanh
    activity_regularizer: null
    bias_constraint: null
    bias_initializer:
      class_name: Zeros
      config: {}
    bias_regularizer: null
    dropout: 0.0
    go_backwards: false
    implementation: 2
    kernel_constraint: null
    kernel_initializer:
      class_name: VarianceScaling
      config: {distribution: uniform, mode: fan_avg, scale: 1.0, seed: null}
    kernel_regularizer: null
    name: lstm_2
    recurrent_activation: hard_sigmoid
    recurrent_constraint: null
    recurrent_dropout: 0.3
    recurrent_initializer:
      class_name: Orthogonal
      config: {gain: 1.0, seed: null}
    recurrent_regularizer: null
    return_sequences: false
    return_state: false
    stateful: false
    trainable: true
    unit_forget_bias: true
    units: 512
    unroll: false
    use_bias: true
- class_name: Dense
  config:
    activation: softmax
    activity_regularizer: null
    bias_constraint: null
    bias_initializer:
      class_name: Zeros
      config: {}
    bias_regularizer: null
    kernel_constraint: null
    kernel_initializer:
      class_name: VarianceScaling
      config: {distribution: uniform, mode: fan_avg, scale: 1.0, seed: null}
    kernel_regularizer: null
    name: dense_1
    trainable: true
    units: 2509
    use_bias: true
keras_version: 2.0.5
